api/Machine/Neural_Network/classification_model.pth (torch, 13834 bytes, 6 tensors)

model.0.weight f4 [64, 8]
-0.21239752 -0.2755103 0.28157675 0.0013411043 -0.41490102 -0.1984454 -0.44916221 0.3261448
-0.20924574 -0.39019722 -0.054786526 -0.08602347 -0.2254572 -0.22960605 0.2870719 0.065128766
-0.1606962 -0.07450123 -0.026916334 -0.240876 -0.26398543 0.18080193 -0.032121997 -0.25235817
-0.2792018 -0.309769 -0.25783613 0.011092865 0.10926468 0.11511421 0.13397829 -0.3369677
-0.42460528 -0.22002538 0.42926937 -0.0110211205 -0.007303408 -0.4463598 -0.08119592 -0.26834363
0.1747616 0.23382002 0.3099641 -0.02813786 -0.31831324 -0.38955593 -0.30743185 0.13615893
0.096701376 0.24384476 0.40351257 -0.31188124 0.26830888 -0.10867197 -0.45555928 0.3121
-0.031979438 0.39181373 0.1734587 0.42327628 0.27236474 -0.4352304 0.39142963 -0.100509316
-0.13132016 -0.26116747 -0.16056938 -0.15181342 0.30321252 -0.40102375 0.2535661 -0.31676963
-0.29771477 -0.21701378 0.07343808 -0.11171058 0.12879446 0.0692788 0.2594122 0.123991646
-0.17855242 -0.19475448 -0.26492816 0.15865438 0.29215202 0.08437466 0.025830211 0.29615706
-0.09412978 -0.0025416363 0.3427746 -0.2404597 -0.3403626 0.36698785 -0.32238477 0.22517371
-0.020497823 0.3357354 0.24878028 0.3778624 0.05351838 -0.027658269 0.06897601 -0.26409397
-0.22001448 -0.30299202 0.08409981 0.30447516 0.075885326 0.2772495 -0.3337649 0.34369445
-0.18596877 -0.42837438 -0.20078479 -0.05404217 -0.15318283 0.27829322 -0.21237127 0.04071689
-0.33931366 -0.006326406 0.39011282 -0.04466503 0.03896908 0.11928178 0.033686444 0.3490591
0.106040716 0.16207147 -0.29590976 -0.2602116 0.37493291 0.12716542 -0.21868126 -0.21944435
-0.135276 -0.12557201 0.35320294 0.4033784 -0.07062924 0.4016798 0.095543966 0.003997797
0.27232862 -0.31046626 0.36774877 -0.31072465 0.13937917 0.46085083 -0.18180054 -0.046865735
0.06290207 0.108262375 -0.39306143 0.25423744 -0.32981306 0.12189062 0.2553503 0.19758476
0.25834176 0.33112937 -0.32730755 -0.05707824 0.4251933 0.32508042 0.15906616 -0.2590779
0.3975263 -0.2804491 -0.024023533 0.14375411 0.26176453 0.31943008 -0.1450551 0.13722183
-0.23304814 -0.08502785 -0.36446074 -0.33959535 -0.42736095 0.1501234 0.33128354 -0.05833693
-0.086483814 0.010581117 -0.38812765 0.030571405 -0.38291797 0.28674898 -0.056814987 -0.22691636
0.37561733 0.17577389 0.29509723 -0.3339747 0.1391097 0.37024757 0.12814091 0.26874045
-0.20134938 0.15622444 0.25717136 -0.37895462 0.44305485 -0.22314784 -0.07203287 -0.0718012
-0.12010179 -0.0061583356 -0.21861684 0.2716935 -0.097992584 0.27963156 0.074400015 0.29356962
0.24211663 0.35080257 0.05954121 -0.23767841 -0.25879714 0.20759715 0.3997301 -0.2908833
-0.0070268367 0.4099089 -0.37220722 0.14217252 -0.07386193 0.38156164 -0.28732237 -0.34758943
-0.33099014 -0.16025782 -0.030547898 0.36020175 0.20669481 0.18159929 -0.17774831 -0.09192767
0.41328025 0.270266 0.21233472 0.032182273 -0.24808721 0.010601166 0.012428741 -0.24141937
0.39091256 0.40097985 0.06374138 -0.29102376 0.17617258 0.2504809 -0.18324207 -0.3196991
00000000: bc7e 59be b00f 8dbe d42a 903e fec7 af3a
00000010: e86d d4be 4535 4bbe 97f8 e5be 74fc a63e
00000020: 8444 56be eec7 c7be d667 60bd 132d b0bd
00000030: 41de 66be d91d 6bbe 17fb 923e 3b62 853d
00000040: 8b8d 24be 1a94 98bd a57f dcbc 33a8 76be
00000050: 1929 87be 2424 393e 5b92 03bd 1735 81be
00000060: 8af3 8ebe 0b9a 9ebe 1903 84be d9be 353c
00000070: 29c6 df3d 00c1 eb3d 9b31 093e 0887 acbe
00000080: dd65 d9be 554e 61be 32c9 db3e ee91 34bc
00000090: 6d51 efbb 4689 e4be 0c4a a6bd 5664 89be
000000a0: b4f4 323e 846e 6f3e 9db3 9e3e 5f81 e6bc
000000b0: f4f9 a2be e073 c7be b567 9dbe 3f6d 0b3e
000000c0: 5f0b c63d 71b2 793e 3399 ce3e e6ae 9fbe
000000d0: c85f 893e 698f debd 113f e9be 92cb 9f3e
000000e0: dffc 02bd cf9b c83e 289f 313e abb7 d83e
000000f0: 6473 8b3e 85d6 debe 7769 c83e d4d7 cdbd
00000100: cb78 06be beb7 85be 4d6c 24be fa74 1bbe
00000110: ac3e 9b3e fc52 cdbe 6ad3 813e a12f a2be
00000120: 126e 98be dc38 5ebe b466 963d 84c8 e4bd
00000130: b2e2 033e 0be2 8d3d add1 843e 55ef fd3d
00000140: 72d6 36be b86d 47be aaa4 87be 4b76 223e
00000150: f394 953e 9fcc ac3d e199 d33c e6a1 973e
00000160: 1dc7 c0bd 9591 26bb 2780 af3e 113b 76be
00000170: 0244 aebe d5e5 bb3e 9e0f a5be f093 663e
00000180: 0deb a7bc 83e5 ab3e 42c0 7e3e 2e77 c13e
00000190: 1736 5b3d 9893 e2bc 4b43 8d3d 5337 87be
000001a0: 7a4b 61be c521 9bbe 853c ac3d 2be4 9b3e
000001b0: c469 9b3d a5f3 8d3e 3ce3 aabe b8f8 af3e
000001c0: 996e 3ebe e353 dbbe 879a 4dbe 535b 5dbd
000001d0: f6db 1cbe 737c 8e3e db77 59be c1c6 263d
000001e0: 85ba adbe bd4d cfbb debc c73e aef2 36bd
000001f0: 0b9e 1f3d 024a f43d ccfa 093d e0b7 b23e
00000200: e02b d93d 10f6 253e 7c81 97be 743a 85be
00000210: 35f7 bf3e a737 023e fbed 5fbe 05b6 60be
00000220: cb85 0abe f395 00be 04d7 b43e 9d87 ce3e
00000230: 10a6 90bd faa8 cd3e 8eac c33d f4ff 823b
00000240: a86e 8b3e 6ff5 9ebe 9149 bc3e 4d17 9fbe
00000250: 6ab9 0e3e a4f4 eb3e ec29 3abe 49f6 3fbd
00000260: cdd2 803d aab8 dd3d 593f c9be 692b 823e
00000270: 42dd a8be caa1 f93d 46bd 823e a953 4a3e
00000280: 5f45 843e ca89 a93e db94 a7be dfca 69bd
00000290: f0b2 d93e f170 a63e 3de2 223e dca5 84be
000002a0: 9188 cb3e 0697 8fbe 00cd c4bc 4734 133e
000002b0: 0006 863e 578c a33e 5389 14be e183 0c3e
000002c0: 2ca4 6ebe 1523 aebd 999a babe 71df adbe
000002d0: 0ecf dabe f3b9 193e ff9d a93e b4f2 6ebd
000002e0: 6d1e b1bd 6c5c 2d3c abb8 c6be e270 fa3c
000002f0: d30d c4be c3d0 923e d5b6 68bd c35c 68be
00000300: ea50 c03e 12fe 333e fc16 973e bbfe aabe
00000310: c672 0e3e 1791 bd3e 5f37 033e 5998 893e
00000320: 882e 4ebe 4df9 1f3e f7ab 833e 5706 c2be
00000330: 16d8 e23e de80 64be f885 93bd 820c 93bd
00000340: edf7 f5bd ddcb c9bb 18dd 5fbe 691b 8b3e
00000350: 56b0 c8bd de2b 8f3e 095f 983d c24e 963e
00000360: 6ced 773e 659c b33e 7ce1 733d f861 73be
00000370: 0f81 84be 5994 543e 6ca9 cc3e a8ee 94be
00000380: 6141 e6bb 94df d13e f291 bebe ac95 113e
00000390: ec44 97bd 0c5c c33e eb1b 93be 3ef7 b1be
000003a0: 8a77 a9be a01a 24be 963f fabc 5d6c b83e
000003b0: cea7 533e 2af5 393e a703 36be 9344 bcbd
000003c0: 7899 d33e 4e60 8a3e 466e 593e 8fd1 033d
000003d0: 930a 7ebe 83b0 2d3c eba1 4b3c a436 77be
000003e0: b125 c83e 3b4d cd3e d78a 823d 1101 95be
000003f0: 9666 343e 083f 803e cfa3 3bbe 9aaf a3be

model.0.bias f4 [64]
0.37748876 0.22008036 0.16368547 0.1639664 0.29059976 0.15172634 0.39418194 -0.017651038
-0.103163116 0.43411753 0.012529827 0.22295038 0.44762394 0.24200134 0.2955997 0.15011789
0.5047508 0.23568426 -0.08153057 0.34531656 -0.07896035 0.5189101 0.25985444 0.44492802
0.1515573 0.47597793 0.37286913 0.5255426 -0.10563373 -0.07289079 0.26642817 -0.041193496
-0.32152885 0.34935817 0.26074734 0.34963167 -0.15479387 -0.027127944 -0.106956586 0.38614833
-0.16204688 0.20452926 0.2140316 0.5283865 0.49083483 0.2512548 0.46245867 0.4446323
-0.010618375 0.2745535 0.1190467 0.4462215 0.15098952 0.30015296 0.37696955 0.4446875
0.19811039 0.2987247 0.552358 -0.038605504 0.39941144 -0.1583632 0.02750716 -0.00180723
00000000: 3546 c13e bf5c 613e 2a9d 273e cfe6 273e
00000010: 7ec9 943e 265e 1b3e 37d2 c93e e998 90bc
00000020: 2f47 d3bd a744 de3e e749 4d3c 1b4d 643e
00000030: f72e e53e 33cf 773e d858 973e 81b8 193e
00000040: 5937 013f 3757 713e 80f9 a6bd 55cd b03e
00000050: f7b5 a1bd 4bd7 043f a40b 853e 9bcd e33e
00000060: d631 1b3e 61b3 f33e b4e8 be3e f689 063f
00000070: 7f56 d8bd c447 95bd 4669 883e 83ba 28bd
00000080: 6e9f a4be 13df b23e ad80 853e ec02 b33e
00000090: 4982 1ebe 6c3b debc 0e0c dbbd 3cb5 c53e
000000a0: 9eef 25be 1e70 513e 1a2b 5b3e 5644 073f
000000b0: b44e fb3e 78a4 803e 62c7 ec3e d8a6 e33e
000000c0: b1f8 2dbc 4792 8c3e c2ce f33d 2577 e43e
000000d0: ff9c 1a3e a6ad 993e 2702 c13e 14ae e33e
000000e0: 73dd 4a3e 72f2 983e 5567 0d3f ce20 1ebd
000000f0: a87f cc3e f629 22be b256 e13c 93e0 ecba

model.2.weight f4 [32, 64]
0.0009789068 -0.092266075 -0.0009596587 0.071168356 -0.09212869 -0.1395984 -0.01635403 0.02264136
0.024306789 -0.12200335 0.002532732 -0.09670194 -0.124382034 0.048676707 -0.11482428 0.039631102
-0.09671586 0.0068884194 -0.11906797 -0.10096325 -0.12121599 -0.13773003 -0.10591284 -0.11365522
0.026046297 -0.032995682 0.09010067 0.03170251 0.0068810256 0.07494219 -0.021281978 0.07690337
-0.08106512 0.019373294 -0.10329638 0.025247468 -0.012306511 -0.082176246 0.103968285 -0.07218586
-0.043692738 0.11433628 0.041818496 -0.046202324 -0.08234572 0.07431826 0.045194667 -0.09931908
0.08088298 0.0996055 0.0008033381 -0.10050411 -0.026354399 -0.04785878 0.03334851 -0.00032985164
-0.053220615 -0.08208864 -0.054683045 -0.113738276 -0.016201219 -0.121034294 -0.09619813 0.046050753
-0.13259588 -0.061208043 0.07081688 0.075582206 0.06985819 -0.119175434 0.04510623 -0.07901197
0.1010012 0.061411094 -0.06543564 0.062548146 -0.0009859625 0.07455441 0.082404464 -0.060265243
-0.056768317 0.018911624 -0.0077114836 -0.088234805 -0.06905581 0.049530108 0.059344575 -0.13839877
-0.0586668 0.025660694 -0.0697992 -0.11089966 -0.07852973 -0.071775794 -0.117419615 0.059826743
0.07818988 -0.074750386 -0.109761134 -0.09354486 -0.12946722 -0.031170327 -0.08244361 0.025418352
-0.043268923 -0.0120320385 -0.040587343 -0.050531745 -0.09835835 -0.10646552 -0.10940245 0.07818452
-0.13789114 -0.053964134 0.019938618 0.05018277 -0.10589304 -0.013399783 -0.12565856 -0.01519337
0.017430903 -0.1340731 0.026713798 0.09580226 -0.07052682 -0.02105906 -0.0929494 -0.06517704
0.15885909 0.061195925 -0.040217333 0.020895448 0.031027345 0.03817841 0.039920893 0.13276306
0.06823873 0.1867736 0.0046382532 0.14526246 0.102741025 0.13295361 -0.0300432 0.14959395
0.09208054 0.0029744683 -0.032229517 0.12504491 0.0053999587 0.2016759 0.08416427 0.19631341
0.20205317 0.12227745 -0.012693178 -0.024256222 0.13298509 0.12951775 0.1998589 0.16191506
0.045832414 -0.012851451 0.19913593 -0.029992828 0.117254384 0.021177761 -0.013662376 -0.01195099
0.21419947 -0.010111023 -0.0029417286 0.1767836 0.16026975 0.1622427 0.046376336 0.042374667
0.07463021 0.022038447 0.190315 0.1346494 0.123716295 0.15518887 0.12234544 0.1965352
-0.0061293254 -0.014778947 0.13081759 0.17168628 0.02193202 0.18173888 0.068092585 0.094208926
0.07846256 0.18083856 0.055652965 0.032269627 0.060949143 0.033608213 0.100227274 0.11467234
0.088852376 0.035407845 0.010006808 -0.057386246 0.13252367 0.1612694 0.105687305 0.007716357
0.09780659 0.08886883 0.1540962 0.16816725 0.061064105 -0.0035119432 0.10258083 0.07608037
-0.019909402 0.17296219 0.1269984 0.11491749 0.067384176 0.06453261 0.10388379 0.06889408
-0.07748122 0.08852209 0.101812996 0.056223124 -0.027586821 -0.04163747 0.099501126 -0.051652107
0.102653414 0.104908094 0.020331062 0.07719133 0.04417593 0.08547564 0.11817637 -0.029293934
0.07508481 0.043622356 0.10333969 0.04951549 -0.053976517 0.117408074 0.1444198 -0.019404247
0.042999037 0.1255105 0.03546325 -0.045842446 0.18075374 0.014006933 0.098499954 0.085586525
00000000: a94e 803a fff5 bcbd 9b91 7bba b7c0 913d
00000010: f7ad bcbd e2f2 0ebe e3f8 85bc 607a b93c
00000020: 081f c73c e4dc f9bd 31fc 253b ab0b c6bd
00000030: 02bc febd 3a61 473d fe28 ebbd 3954 223d
00000040: f712 c6bd 40b8 e13b e8d9 f3bd d2c5 cebd
00000050: 1740 f8bd 1a09 0dbe d5e8 d8bd 11c4 e8bd
00000060: 0b5f d53c 7b26 07bd b386 b83d 7eda 013d
00000070: 3a7a e13b 4a7b 993d 8b57 aebc 847f 9d3d
00000080: 7805 a6bd beb4 9e3c 0d8d d3bd c7d3 ce3c
00000090: 40a1 49bc 054c a8bd 53ed d43d 2ed6 93bd
000000a0: 28f7 32bd 2429 ea3d df49 2b3d a63e 3dbd
000000b0: dfa4 a8bd 2c34 983d 0b1e 393d cd67 cbbd
000000c0: faa5 a53d f8fd cb3d 1b97 523a 19d5 cdbd
000000d0: 2ee5 d7bc 9107 44bd 7298 083d f0ef acb9
000000e0: dcfd 59bd 171e a8bd 54fb 5fbd 9def e8bd
000000f0: 6bb8 84bc d4e0 f7bd 8603 c5bd b79f 3c3d
00000100: 37c7 07be 49b5 7abd 7108 913d d8ca 9a3d
00000110: d011 8f3d 4012 f4bd 4fc1 383d 07d1 a1bd
00000120: b8d9 ce3d 338a 7b3d 1f03 86bd 3e19 803d
00000130: 693b 81ba fcaf 983d acc3 a83d b0d8 76bd
00000140: e585 68bd 8dec 9a3c 9db0 fcbb 73b4 b4bd
00000150: 226d 8dbd 15e0 4a3d 4c13 733d 68b8 0dbe
00000160: 994c 70bd 6036 d23c e2f2 8ebd 5c1f e3bd
00000170: 32d4 a0bd 30ff 92bd b279 f0bd e30c 753d
00000180: 0422 a03d bb16 99bd 72ca e0bd 7394 bfbd
00000190: 0e93 04be ea58 ffbc 32d8 a8bd 263a d03c
000001a0: c13a 31bd 0722 45bc ea3e 26bd 60fa 4ebd
000001b0: 1a70 c9bd 980a dabd 640e e0bd 351f a03d
000001c0: 5633 0dbe 7f09 5dbd 5056 a33c 738c 4d3d
000001d0: 73de d8bd c38a 5bbc a3ac 00be 9ded 78bc
000001e0: 41cb 8e3c 754a 09be e5d6 da3c fa33 c43d
000001f0: 5e70 90bd 0d84 acbc 415c bebd 8a7b 85bd
00000200: f5ab 223e 94a8 7a3d eeba 24bd ee2c ab3c
00000210: 0f2d fe3c f760 1c3d 1784 233d 0af3 073e
00000220: bfc0 8b3d 9441 3f3e 7dfc 973b afbf 143e
00000230: e369 d23d fe24 083e 281d f6bc 282f 193e
00000240: b994 bc3d 4cef 423b 1903 04bd c60b 003e
00000250: 23f2 b03b 2184 4e3e 515e ac3d 6206 493e
00000260: 07e7 4e3e 9a6c fa3d 0cf7 4fbc fcb4 c6bc
00000270: 3e2d 083e 4da0 043e d0a7 4c3e 10cd 253e
00000280: c5ba 3b3d e48e 52bc 4aea 4b3e 85b3 f5bc
00000290: 1123 f03d fc7c ad3c 29d8 5fbc 16ce 43bc
000002a0: 1b57 5b3e b4a8 25bc 04ca 40bb c306 353e
000002b0: c11d 243e f322 263e 1df5 3d3d 0f91 2d3d
000002c0: b9d7 983d f989 b43c efe1 423e 88e1 093e
000002d0: f85e fd3d d5e9 1e3e 3f90 fa3d 8640 493e
000002e0: 82d8 c8bb 6623 72bc 0cf5 053e 87ce 2f3e
000002f0: c8aa b33c c219 3a3e 2074 8b3d 9cf0 c03d
00000300: fbb0 a03d be2d 393e 5df4 633d 282d 043d
00000310: cfa5 793d c4a8 093d f543 cd3d 55d9 ea3d
00000320: 3cf8 b53d d107 113d 98f3 233c d70d 6bbd
00000330: 49b4 073e ce23 253e 9672 d83d 7ed9 fc3b
00000340: d24e c83d dc00 b63d 65cb 1d3e 0934 2c3e
00000350: 5b1e 7a3d a128 66bb e615 d23d 06d0 9b3d
00000360: 0b19 a3bc 001d 313e de0b 023e dc59 eb3d
00000370: b700 8a3d ac29 843d 06c1 d43d 5718 8d3d
00000380: 79ae 9ebd 124b b53d 5583 d03d 384a 663d
00000390: c2fd e1bc 0d8c 2abd 3fc7 cb3d 2991 53bd
000003a0: f43b d23d 0eda d63d 548d a63c 7d16 9e3d
000003b0: d2f1 343d da0d af3d 7406 f23d d5f9 efbc
000003c0: 11c6 993d 5bad 323d c2a3 d33d c1d0 4a3d
000003d0: 7b16 5dbd a573 f03d c9e2 133e a8f5 9ebc
000003e0: c21f 303d d385 003e ea41 113d 4ac5 3bbd
000003f0: 8217 393e 567d 653c 58ba c93d fd47 af3d

model.2.bias f4 [32]
0.07708257 -0.067986764 0.18137334 0.07997813 0.019065363 0.048256926 0.2089082 0.11369805
0.21745798 0.18010119 0.031060958 -0.024950705 0.4745172 0.004561036 -0.04404337 0.17174636
-0.10953282 -0.0074997856 0.19918221 0.10378747 0.1557028 0.03356793 0.14554265 -0.010110223
0.07902939 -0.09017361 0.15982398 0.032597434 0.08580663 0.19183475 0.14323695 0.07885942
00000000: 77dd 9d3d a53c 8bbd efb9 393e 93cb a33d
00000010: f72e 9c3c 0ea9 453d 08ec 553e 86da e83d
00000020: 4ead 5e3e 726c 383e 8d73 fe3c 6c65 ccbc
00000030: ebf3 f23e be74 953b d266 34bd 47de 2f3e
00000040: be52 e0bd c3c0 f5bb 6cf6 4b3e 868e d43d
00000050: 8e70 1f3e 877e 093d 2209 153e 59a5 25bc
00000060: 29da a13d f1ac b8bd e6a8 233e e384 053d
00000070: 63bb af3d 5470 443e b5ac 123e 0c81 a13d

model.4.weight f4 [3, 32]
-0.018909747 -0.1516139 0.102580465 0.1214329 0.08083979 0.13289765 0.123276055 -0.03766708
0.05546784 0.22447 0.050237224 -0.1090287 0.7940632 -0.012986217 0.24825579 0.051680524
-0.067340784 0.23504803 0.18688904 0.1648367 0.15123907 -0.13436791 0.063107185 0.17676926
0.19076633 0.10387634 0.025324995 -0.0917664 0.16356 0.096915066 0.06765941 -0.10142647
0.006750358 -0.083043344 -0.30593458 -0.22187246 -0.11870346 -0.16732195 -0.18780492 -0.22315682
-0.19793819 -0.065154 -0.30250114 0.11987056 -0.90350574 0.083224684 -0.06886295 -0.1985377
-0.13387655 -0.33215606 -0.15899146 -0.012473209 0.03587158 0.15876344 -0.24062641 -0.11733363
-0.05753381 0.15866108 -0.28612468 -0.1335218 -0.042135973 -0.19216841 -0.1529502 0.12314207
-0.008345309 -0.055415634 0.06673403 -0.25502676 -0.23163465 -0.16273187 -0.02198009 0.032052368
-0.1181999 -0.13135853 -0.2565028 -0.096948944 -0.9373804 -0.07949653 -0.20442116 -0.24255072
-0.03250067 -0.19074395 -0.09050234 -0.27403224 -0.18616277 0.009548267 -0.22598167 -0.27047232
-0.13983689 0.018238077 -0.14660247 -0.01565234 -0.10104354 -0.15865959 -0.14932202 -0.08605071
00000000: 9de8 9abc ad40 1bbe b515 d23d d0b1 f83d
00000010: 558f a53d 5216 083e 2878 fc3d cc48 1abd
00000020: 3f32 633d 77db 653e 8cc5 4d3d 704a dfbd
00000030: ba47 4b3f 24c4 54bc c436 7e3e f5ae 533d
00000040: f7e9 89bd 6eb0 703e d75f 3f3e f4ca 283e
00000050: 6ade 1a3e be97 09be 573e 813d 0003 353e
00000060: 4058 433e 1ebd d43d 5d76 cf3c 06f0 bbbd
00000070: 467c 273e 687b c63d 0491 8a3d aeb8 cfbd
00000080: 1b32 dd3b a112 aabd 75a3 9cbe 8932 63be
00000090: cd1a f3bd 7256 2bbe ef4f 40be 3983 64be
000000a0: 4fb0 4abe 766f 85bd 6ee1 9abe b27e f53d
000000b0: 274c 67bf b471 aa3d 0508 8dbd 784d 4bbe
000000c0: ef16 09be 5c10 aabe a8ce 22be 6e5c 4cbc
000000d0: 14ee 123d e292 223e c566 76be 9d4c f0bd
000000e0: 93a8 6bbd 0d78 223e ef7e 92be f0b9 08be
000000f0: c596 2cbd ccc7 44be fa9e 1cbe e931 fc3d
00000100: c3ba 08bc 81fb 62bd daab 883d de92 82be
00000110: a231 6dbe 2fa3 26be 970f b4bc 5849 033d
00000120: ca12 f2bd da82 06be 5654 83be 2b8d c6bd
00000130: 29f8 6fbf 14cf a2bd c853 51be 375f 78be
00000140: 6c1f 05bd 6252 43be 4a59 b9bd f44d 8cbe
00000150: 74a1 3ebe 5670 1c3c bd67 67be 597b 8abe
00000160: 6731 0fbe 0568 953c f51e 16be 5639 80bc
00000170: eaef cebd a977 22be dfe7 18be 5b3b b0bd

model.4.bias f4 [3]
-0.11301541 0.058299746 -0.11500046
00000000: a074 e7bd b7cb 6e3d 5c85 ebbd
