api/Machine/Neural_Network/regression_model.pth (torch, 55334 bytes, 15 tensors)

model.0.weight f4 [128, 8]
-0.23138227 -0.039794575 -0.024743564 -0.07008869 -0.0131137455 -0.048742957 0.011258501 0.25834745
0.05233157 -0.36342028 0.13393375 -0.1708933 -0.20557879 -0.15493202 -0.058822375 0.1448583
0.23539194 0.056212798 0.0063671567 0.044755492 0.021662287 0.08196862 0.016863862 0.21059819
-0.36871773 -0.026363948 -0.01950876 0.01035162 0.21994753 -0.08128416 0.09493988 0.34256893
-0.023488985 0.06902339 -0.21437934 -0.05824342 -0.3448015 -0.050952453 -0.1393418 0.1671482
-0.43025547 0.29596162 0.04250972 -0.0005767549 -0.030972589 -0.03521496 0.017453063 -0.025347704
0.70947385 -0.023970926 0.04888841 0.18437742 0.008477797 0.113851994 -0.012969453 -0.22410473
0.31762466 -0.22565226 -0.024348533 0.02922329 -0.031259604 0.012969963 -0.0243964 -0.056572575
0.5432198 0.043994423 0.01581585 0.12699242 0.11109007 0.16280219 -0.028851934 0.29767868
-0.3504826 -0.24368358 -0.0679457 -0.01558075 -0.091306545 -0.421687 0.17074855 0.13870557
0.5466927 -0.17322609 0.045504767 0.06317158 -0.019744271 0.072688006 0.02246789 -0.24025697
0.14222819 0.40339276 0.10614846 -0.124160215 -0.09295196 -0.19595033 -0.24470748 -0.23230664
-0.37707874 0.21456258 -0.16637045 -0.11817765 -0.07906856 -0.27678072 0.118489236 -0.3229671
0.63281155 0.00046783692 0.054217797 0.16907768 -0.014177461 0.102469355 0.0028589207 0.18047972
-0.4154276 -0.0023666285 -0.029535951 -0.09958823 -0.0062505268 -0.072222486 -0.0029692824 0.10144843
-0.387575 0.1737433 -0.16929394 -0.29561222 0.10059902 0.18357065 -0.12607352 0.0041981633
0.52905625 0.07854525 0.03970512 0.14491802 0.008548538 0.143682 0.0111338915 0.085685514
0.36982113 -0.085862026 0.117718264 0.3213087 -0.09411919 0.5505001 -0.00090604596 0.3332322
-0.54683554 -0.05834523 -0.042527642 -0.15626392 -0.02180722 -0.112514414 0.0048367972 0.019710185
0.65412647 0.020046057 0.07550611 0.15690169 0.029906455 -0.0041908715 0.03316709 -0.02937277
0.28391948 0.2812481 -0.27992705 0.25704145 -0.28118363 -0.08723151 0.20191322 0.010956958
-0.44784015 0.017589353 0.11546954 0.012489913 -0.09813927 -0.13343535 0.10777204 -0.25368336
-0.37622663 0.013907004 -0.01708 -0.100564994 -0.0022583792 -0.044096682 0.009771355 0.16295227
0.03019377 -0.13230895 -0.099994 0.24973208 -0.24691442 -0.44324595 -0.026469314 0.303107
0.13299999 0.24967067 0.1394906 0.19615634 0.150683 0.028156271 -0.27816463 0.14966236
-0.5433076 0.0688235 -0.049520824 -0.0035192715 0.050403062 0.31317255 -0.18000574 -0.2399082
0.38411376 -0.10252828 0.030005539 0.07989916 -0.016165467 0.03917713 -0.014398244 0.018962331
0.6390207 -0.008936509 0.00075407064 0.22341542 0.05246106 0.33948088 -0.10128095 -0.24857178
0.5394157 0.06421793 0.0414942 0.17339502 0.024913514 0.13988115 -0.008489783 0.30824846
-0.37573975 -0.13146949 -0.2959851 0.0272988 0.117344655 0.18933788 0.0105391 0.04970205
0.46878427 0.107066624 0.025363628 0.15174139 0.021057839 0.12138261 -0.0023353635 0.076273784
-0.25447807 -0.026902787 0.18703492 -0.2238982 -0.15121305 -0.23393625 0.15128519 0.13862567
00000000: 79ef 6cbe a3ff 22bd 04b3 cabc a98a 8fbd
00000010: 09db 56bc b2a6 47bd 9375 383c 1e46 843e
00000020: a159 563d 3912 babe ee25 093e a7fe 2ebe
00000030: 3f83 52be 80a6 1ebe bbef 70bd bc55 143e
00000040: 960a 713e 643f 663d 95a3 d03b 8951 373d
00000050: 1c75 b13c 2adf a73d 1526 8a3c 0da7 573e
00000060: 92c8 bcbe 35f9 d7bc d6d0 9fbc d799 293c
00000070: ed39 613e 4f78 a6bd d76f c23d 3265 af3e
00000080: f96b c0bc 235c 8d3d 4286 5bbe a790 6ebd
00000090: d289 b0be 85b3 50bd 9eaf 0ebe e628 2b3e
000000a0: 724a dcbe 4888 973e ac1e 2e3d 5e31 17ba
000000b0: 3aba fdbc 903d 10bd baf9 8e3c fda5 cfbc
000000c0: 14a0 353f ad5e c4bc 373f 483d 6fcd 3c3e
000000d0: 75e6 0a3c 3c2b e93d d47d 54bc b67b 65be
000000e0: b39f a23e 6311 67be 9376 c7bc ae65 ef3c
000000f0: 120a 00bd f87f 543c f6da c7bc a5b8 67bd
00000100: 7410 0b3f 7f33 343d 3e90 813c 4d0a 023e
00000110: 3183 e33d 9eb5 263e e45a ecbc 5769 983e
00000120: 7572 b3be 3088 79be 1d27 8bbd 6746 7fbc
00000130: edfe babd 5ce7 d7be b5d8 2e3e d508 0e3e
00000140: 0ef4 0b3f 2e62 31be 3563 3a3d 1a60 813d
00000150: bdbe a1bc 73dd 943d 950e b83c ec05 76be
00000160: 44a4 113e 7f89 ce3e 5d64 d93d b647 febd
00000170: 995d bebd 34a7 48be 9994 7abe cbe1 6dbe
00000180: 7710 c1be 4bb6 5b3e 045d 2abe 2007 f2bd
00000190: b2ee a1bd 34b6 8dbe 7caa f23d f25b a5be
000001a0: f0ff 213f 0248 f539 7b13 5e3d b322 2d3e
000001b0: 9548 68bc 74db d13d bb5c 3b3b adcf 383e
000001c0: edb2 d4be 7019 1bbb 61f5 f1bc eaf4 cbbd
000001d0: 38d1 ccbb 62e9 93bd 4b98 42bb 32c4 cf3d
000001e0: 3b70 c6be c3e9 313e 645b 2dbe 7c5a 97be
000001f0: dc06 ce3d f2f9 3b3e 6b19 01be bf90 893b
00000200: 3b70 073f 55dc a03d d6a1 223d 6465 143e
00000210: 2b0f 0c3c 6021 133e ed6a 363c e37b af3d
00000220: 3259 bd3e 6ed8 afbd 4616 f13d 9382 a43e
00000230: 90c1 c0bd 93ed 0c3f b783 6dba 699d aa3e
00000240: 6afd 0bbf 68fb 6ebd 7731 2ebd a603 20be
00000250: 0ea5 b2bc f56d e6bd ff7d 9e3b 4177 a13c
00000260: d574 273f a137 a43c f3a2 9a3d d6aa 203e
00000270: 62fe f43c 9453 89bb 37da 073d 2a9f f0bc
00000280: e55d 913e c0ff 8f3e 9952 8fbe f09a 833e
00000290: 4df7 8fbe 6fa6 b2bd 57c2 4e3e d084 333c
000002a0: 4e4b e5be 8c17 903c 4b7b ec3d 7ea2 4c3c
000002b0: 3efd c8bd 47a3 08be 96b7 dc3d c9e2 81be
000002c0: c7a0 c0be 34da 633c 5beb 8bbc 05f5 cdbd
000002d0: 5101 14bb b99e 34bd 0918 203c f6dc 263e
000002e0: ed58 f73c ff7b 07be a7c9 ccbd c4b9 7f3e
000002f0: 22d7 7cbe 22f1 e2be 2dd6 d8bc d730 9b3e
00000300: 2631 083e aba9 7f3e a0d6 0e3e 35dd 483e
00000310: a54c 1a3e fba7 e63c 986b 8ebe 1741 193e
00000320: 3516 0bbf 56f3 8c3d 59d6 4abd 94a3 66bb
00000330: 7173 4e3d 2758 a03e 6d53 38be 7faa 75be
00000340: 8faa c43e 59fa d1bd 2dce f53c 2ca2 a33d
00000350: 716d 84bc 3378 203d 9de6 6bbc e456 9b3c
00000360: dc96 233f 6f6a 12bc d3ac 453a 03c7 643e
00000370: 69e1 563d 70d0 ad3e 636c cfbd 9a89 7ebe
00000380: 2617 0a3f b184 833d d2f5 293d 778e 313e
00000390: 6d17 cc3c 013d 0f3e bb18 0bbc bed2 9d3e
000003a0: f660 c0be f09f 06be 5c8b 97be bca1 df3c
000003b0: 6552 f03d cae1 413e 30ac 2c3c 6094 4b3d
000003c0: 7e04 f03e bf45 db3d 62c7 cf3c 1862 1b3e
000003d0: 7d81 ac3c 7297 f83d e60c 19bb 6e35 9c3d
000003e0: f34a 82be 3c63 dcbc 1586 3f3e 9245 65be
000003f0: 98d7 1abe fc8c 6fbe 81ea 1a3e e3f3 0d3e

model.0.bias f4 [128]
-0.49125135 0.75242376 -0.56760144 1.051606 -0.30805197 0.43179175 -0.24898523 -0.39130217
0.024153054 0.28356025 0.24168755 -0.0009563993 1.1028386 -0.1184297 -0.37723273 -0.19170901
-0.6103091 -0.19017327 -0.66643167 -0.2031183 0.26750466 1.1787677 -0.5170071 0.257649
-0.12492062 0.07893545 -0.5719295 0.26462224 0.27505836 0.4784347 0.4248857 0.8035292
-0.057845872 -0.23994963 0.34866592 -0.019050267 -0.5578912 -0.2612609 -0.39089426 -0.48585773
0.3354292 -0.18282337 0.32952255 -0.32630512 0.13750008 0.43558192 -0.036840413 -0.40902352
0.3298553 0.30711964 0.08491624 0.028225737 -0.55823356 -0.45814005 0.2127574 -0.41555095
0.43156588 -0.22106248 0.15323125 0.07670143 -0.15871875 0.050693303 -0.12074133 0.24767065
-0.36757576 -0.013489562 0.20608145 0.21497747 -0.6718425 0.35909092 -0.23692197 0.88492876
-0.044844914 -0.5966916 0.28769144 0.28155583 -0.020730728 -0.20324795 -0.3693687 0.5114183
0.21557917 0.9339368 -0.2390666 0.023702735 -0.15903315 0.3044669 -0.21719983 0.13225482
1.1309192 -0.3919031 0.22103117 0.16759944 0.18132399 0.9117377 -0.3992771 0.8074205
0.46503517 -0.59481615 0.06977242 -0.2381495 -0.13865346 -0.021744791 0.21748863 0.028031714
0.29815394 -0.29615 0.30216008 0.11482464 -0.5554185 0.13881868 -0.36139792 0.42548686
-0.20337449 -0.1659212 -0.6186229 0.34576157 -0.12897974 0.36549646 -0.05546211 0.83944523
-0.29913986 0.17195652 -0.42961106 0.5638377 0.06800052 -0.540008 -0.2797681 -0.65943027
00000000: 4c85 fbbe d89e 403f 544e 11bf 079b 863f
00000010: fdb8 9dbe cf13 dd3e fcf5 7ebe c258 c8be
00000020: a0dc c53c cf2e 913e f17c 773e dfb6 7aba
00000030: d129 8d3f 458b f2bd a624 c1be 5e4f 44be
00000040: 383d 1cbf c8bc 42be 449b 2abf 3efe 4fbe
00000050: 5ff6 883e dce1 963f 945a 04bf 92ea 833e
00000060: 62d6 ffbd e9a8 a13d f969 12bf 917c 873e
00000070: 73d4 8c3e 65f5 f43e 9e8a d93e 17b4 4d3f
00000080: cbef 6cbd 5bb5 75be 5784 b23e 4e0f 9cbc
00000090: f5d1 0ebf fdc3 85be 4b23 c8be 58c2 f8be
000000a0: 60bd ab3e 0d36 3bbe 2eb7 a83e 7711 a7be
000000b0: d2cc 0c3e 9804 df3e f9e5 16bd 886b d1be
000000c0: cbe2 a83e c93e 9d3e 91e8 ad3d a939 e73c
000000d0: 65e8 0ebf 5591 eabe 13dd 593e 18c3 d4be
000000e0: 34f6 dc3e 345e 62be a7e8 1c3e a415 9d3d
000000f0: 2b87 22be c8a3 4f3d 3b47 f7bd 609d 7d3e
00000100: e432 bcbe 5303 5dbc 0407 533e 0e23 5c3e
00000110: dffd 2bbf c4da b73e ac9b 72be b18a 623f
00000120: 4daf 37bd c8c0 18bf 4b4c 933e 1628 903e
00000130: 7dd3 a9bc 3b20 50be e51d bdbe 4fec 023f
00000140: c9c0 5c3e 7b16 6f3f e0cd 74be 3d2c c23c
00000150: 96d9 22be 16e3 9b3e a269 5ebe cf6d 073e
00000160: f6c1 903f 86a7 c8be ff55 623e 309f 2b3e
00000170: ffac 393e a467 693f 0c6e ccbe 1cb3 4e3f
00000180: 1719 ee3e df45 18bf d8e4 8e3d 76dd 73be
00000190: 2cfb 0dbe 2222 b2bc 57b5 5e3e c4a2 e53c
000001a0: a2a7 983e f9a0 97be bab4 9a3e 2e29 eb3d
000001b0: e82f 0ebf 7c26 0e3e 2609 b9be 6ad9 d93e
000001c0: 6741 50be 3fe7 29be 125e 1ebf a907 b13e
000001d0: 4413 04be 5a22 bb3e 3d2c 63bd e2e5 563f
000001e0: dc28 99be 5f15 303e fbf5 dbbe ab57 103f
000001f0: db43 8b3d f73d 0abf c43d 8fbe 6cd0 28bf

model.2.weight f4 [128]
1.2461193 0.66075236 1.1852727 0.6424478 0.45698112 0.72085905 0.9624581 1.2964475
0.7790966 0.587326 0.72972775 0.45692575 0.6478251 0.9142438 1.1290289 0.52755946
1.0849832 0.791808 1.1999959 0.6862241 0.5180586 0.57451004 1.3346641 0.4715223
0.5628418 0.4981086 1.6666733 0.7646345 0.8708792 0.5517526 0.8714694 0.6010785
0.553537 0.6889312 0.8216146 0.5987536 1.1794975 0.49451843 0.8330156 1.4507583
0.5779697 0.6074803 0.5398708 0.9910569 0.95050013 0.71274984 1.0056928 1.1423874
0.80276495 0.56851965 0.734349 0.85125345 1.0435492 0.82202786 0.87501496 0.955293
0.5381187 0.9310432 0.771897 0.46867558 0.7202182 0.4773352 0.6599551 0.7170378
0.9448153 0.93206793 0.87369376 0.66942316 0.9059759 0.7849522 0.7873303 0.55433947
0.5804418 0.8122655 0.7114426 0.8764183 0.58476436 0.8875423 0.6341217 0.58521354
0.68776405 0.6302672 0.8094811 0.9123166 0.77504265 0.86189437 0.4940311 0.49669197
0.56788 1.4339154 0.9503515 0.9434453 0.6668844 0.6675078 1.1255776 0.58169556
0.8350682 1.5836841 0.6715134 0.5789924 0.828483 0.5707921 0.66093755 0.7150175
0.51538527 0.8132057 0.5349092 0.60843444 1.2088327 0.7517985 0.527024 0.5459205
0.9071833 0.5905862 1.3741088 0.59352726 0.29128125 0.8201019 0.49050975 0.5719471
0.5814096 0.60356355 1.0533067 0.6054796 0.7835349 1.7722114 0.95998985 1.0788834
00000000: d680 9f3f 1127 293f 04b7 973f 7677 243f
00000010: 6ef9 e93e 388a 383f a763 763f fef1 a53f
00000020: e072 473f ff5a 163f 70cf 3a3f 2cf2 e93e
00000030: ded7 253f e20b 6a3f 0584 903f 230e 073f
00000040: bbe0 8a3f eeb3 4a3f 7799 993f 62ac 2f3f
00000050: 7d9f 043f 1713 133f 46d6 aa3f 5f6b f13e
00000060: 6616 103f 1708 ff3e 8d55 d53f 16bf 433f
00000070: f0f1 5e3f a93f 0d3f 9e18 5f3f 48e0 193f
00000080: 9ab4 0d3f cc5d 303f 5655 523f ea47 193f
00000090: c6f9 963f 8531 fd3e 8340 553f 73b2 b93f
000000a0: d2f5 133f d483 1b3f f934 0a3f e8b5 7d3f
000000b0: fa53 733f c676 363f 8bba 803f c039 923f
000000c0: 0182 4d3f 818a 113f 4cfe 3b3f bfeb 593f
000000d0: 0593 853f 6b70 523f fb00 603f 158e 743f
000000e0: 26c2 093f d958 6e3f 0b9b 453f 3ff6 ef3e
000000f0: 3860 383f 4865 f43e d1f2 283f ca8f 373f
00000100: 6adf 713f 019c 6e3f 65aa 5f3f 515f 2b3f
00000110: 09ee 673f a1f2 483f 7b8e 493f 31e9 0d3f
00000120: d597 143f a2f0 4f3f 1a21 363f f35c 603f
00000130: 1eb3 153f f935 633f cd55 223f 8ed0 153f
00000140: 4e11 303f 3159 213f 273a 4f3f 958d 693f
00000150: 3269 463f 1ca5 5c3f a5f1 fc3e 694e fe3e
00000160: 9560 113f 8a8a b73f 3c4a 733f a285 713f
00000170: f0b8 2a3f cbe1 2a3f ed12 903f 00ea 143f
00000180: 08c7 553f 29b6 ca3f 4de8 2b3f d938 143f
00000190: 7617 543f 6e1f 123f 3433 293f 630b 373f
000001a0: 4af0 033f 402e 503f cfef 083f 5cc2 1b3f
000001b0: 08bb 9a3f de75 403f 0beb 063f 72c1 0b3f
000001c0: 2a3d 683f a830 173f cce2 af3f 67f1 173f
000001d0: d122 953e 33f2 513f 1824 fb3e 206b 123f
000001e0: 42d7 143f 2483 1a3f c1d2 863f b600 1b3f
000001f0: be95 483f d3d7 e23f e5c1 753f da18 8a3f

model.2.bias f4 [128]
0.17451218 -0.31517327 0.3271288 -0.582956 -0.538637 -0.60966367 0.44150168 0.32825285
0.4549113 -0.31732437 0.49571237 -0.31526092 -0.27738643 0.37957835 0.36300293 -0.45520672
0.41092765 0.20217705 0.34980816 -0.22520566 -0.056810606 -0.4943347 0.33383468 -0.26647857
-0.2381403 -0.46524915 0.27918485 0.3151677 0.37783295 -0.36598065 0.6313776 -0.57727665
-0.41407177 0.39157405 0.5994866 -0.035434168 0.33370936 0.004234296 0.40566966 0.18570215
-0.45156455 -0.3999157 -0.4420249 0.2986737 0.43093285 0.48815557 0.43056038 0.38467124
0.49201828 0.33824402 -0.18872863 0.344616 0.42069015 0.13651751 0.34167615 0.27162966
-0.13427852 0.19879013 0.106843844 -0.2123648 0.52320707 -0.29350403 -0.08569074 0.32712108
0.50878716 0.3846472 0.61046004 -0.47062492 -0.08396073 0.5302675 0.48255172 -0.47504643
0.133733 -0.07374777 0.0382461 0.456393 -0.36244786 -0.1590541 -0.31008488 -0.384592
0.56748587 -0.54545003 0.10061705 0.3847737 0.53736806 0.6722144 -0.3222482 -0.46185347
-0.55442816 0.28780195 0.5421518 0.49868143 -0.008082393 -0.5781377 0.28201342 -0.58912206
0.62745947 0.14449836 0.27430174 -0.20720728 0.35228062 -0.6403679 0.4375468 0.46796235
-0.17049256 0.53233635 -0.40703428 -0.63846654 0.3767302 0.13395478 0.2776791 -0.13226788
0.47217324 -0.38981622 0.22546501 -0.43081677 -0.41526863 0.6115225 -0.48492733 -0.4477437
-0.5364425 -0.5264516 0.29587096 -0.6472574 0.61121815 0.18319066 0.38814947 0.021116992
00000000: 52b3 323e 645e a1be 6d7d a73e 9b3c 15bf
00000010: 1de4 09bf eb12 1cbf 820c e23e c210 a83e
00000020: 22ea e83e 5778 a2be 03ce fd3e e169 a1be
00000030: 9805 8ebe 1858 c23e 85db b93e db10 e9be
00000040: 1c65 d23e 8007 4f3e 0e1a b33e 509c 66be
00000050: 3db2 68bd 7019 fdbe 61ec aa3e e16f 88be
00000060: 0ddb 73be 2335 eebe 51f1 8e3e a95d a13e
00000070: 5273 c13e d161 bbbe f6a1 213f 67c8 13bf
00000080: 3701 d4be 657c c83e f477 193f 6b23 11bd
00000090: f4db aa3e d9bf 8a3b efb3 cf3e b428 3e3e
000000a0: 7833 e7be c0c1 ccbe 1651 e2be c2eb 983e
000000b0: 3ba3 dc3e 87ef f93e 6972 dc3e a1f3 c43e
000000c0: d2e9 fb3e 522e ad3e 1442 41be 8271 b03e
000000d0: b364 d73e 3fcb 0b3e 2df0 ae3e 0b13 8b3e
000000e0: 4f80 09be a48f 4b3e f2d0 da3d 2876 59be
000000f0: e6f0 053f 2946 96be a07e afbd 6a7c a73e
00000100: e03f 023f 7af0 c43e 1c47 1c3f c0f5 f0be
00000110: 9af3 abbd 9cbf 073f 0511 f73e 4939 f3be
00000120: 4ef1 083e 1209 97bd f1a7 1c3d 58ac e93e
00000130: c492 b9be 14df 22be 72c3 9ebe 3ee9 c4be
00000140: c146 113f 9da2 0bbf 5010 ce3d 0f01 c53e
00000150: f490 093f 3e16 2c3f b7fd a4be 0f78 ecbe
00000160: 01ef 0dbf c75a 933e 76ca 0a3f 2c53 ff3e
00000170: 036c 04bc d500 14bf 1064 903e b4d0 16bf
00000180: 2fa1 203f 61f7 133e 4771 8c3e 252e 54be
00000190: 205e b43e 27ef 23bf 2206 e03e c398 ef3e
000001a0: 9a95 2ebe 3247 083f cc66 d0be 8b72 23bf
000001b0: c8e2 c03e 712b 093e f42b 8e3e 3b71 07be
000001c0: b1c0 f13e fe95 c7be 4de0 663e 0494 dcbe
000001d0: 179e d4be bd8c 1c3f 6548 f8be aa3e e5be
000001e0: 4c54 09bf 88c5 06bf 667c 973e a9b2 25bf
000001f0: cb78 1c3f 5596 3b3e 87bb c63e 8bfd ac3c

model.2.running_mean f4 [128]
0.0061131273 0.73356926 0.005037055 1.023245 0.049711026 0.41957113 0.2316388 6e-45
0.32142258 0.4628997 0.34634238 0.2735317 1.0742332 0.26043382 0.048142027 0.104546264
0.08924332 0.2359967 0.05056488 0.23805726 0.46998286 1.1433028 0.016283842 0.39666125
0.21295586 0.2510058 0.004912151 0.5199615 0.484587 0.5153355 0.57354516 0.79358375
0.16314775 0.17276916 0.46346042 0.19515464 0.05132748 0.12393259 0.2022143 0.0005594327
0.45273575 0.23629832 0.48508626 0.13888341 0.52894485 0.5111442 0.23827447 0.06462544
0.5318351 0.48350236 0.4401644 0.4153042 0.09911059 0.07019428 0.5669694 0.09785181
0.45094877 0.187554 0.50385046 0.36373645 0.35240453 0.2912828 0.19083922 0.4109575
0.18256836 0.3545601 0.32586122 0.27583864 0.0019619104 0.51725364 0.31504223 0.85311884
0.16667901 0.08490416 0.4033368 0.5639889 0.21779503 0.15587279 0.042586546 0.50616056
0.38882136 0.9092863 0.36016944 0.4711023 0.16402161 0.4102247 0.17320676 0.35691178
1.0917125 0.013587508 0.4450172 0.37590232 0.5097049 0.88063794 0.1119481 0.78476393
0.6536039 0.002616264 0.34709775 0.28038377 0.35269657 0.28068078 0.44442606 0.2939273
0.43983895 0.35742325 0.39552614 0.34391937 0.030827256 0.36260217 0.07164953 0.48652592
0.26399523 0.23437479 0.015830377 0.48540118 0.19082774 0.49720728 0.24512407 0.8222251
0.06731358 0.34568885 0.08168423 0.57118607 0.4315529 0.0007268371 0.13469878 0.027519682
00000000: a150 c83b 32cb 3b3f e10d a53b b1f9 823f
00000010: ca9d 4b3d 07d2 d63e b932 6d3e 0400 0000
00000020: 8091 a43e 3101 ed3e ca53 b13e 590c 8c3e
00000030: 7980 893f 9557 853e 9330 453d 5a1c d63d
00000040: 34c5 b63d 1ea9 713e 1f1d 4f3d 48c5 733e
00000050: 98a1 f03e bf57 923f b165 853c 2f17 cb3e
00000060: 1a11 5a3e d583 803e 1cf6 a03b 321c 053f
00000070: ca1b f83e 07ed 033f dbd3 123f 4e28 4b3f
00000080: 3410 273e 66ea 303e af4a ed3e 9ed6 473e
00000090: c33c 523d 5fd0 fd3d 4411 4f3e e5a6 123a
000000a0: fbcc e73e 30f8 713e 3a5d f83e 7437 0e3e
000000b0: ee68 073f 59da 023f 39fe 733e 585a 843d
000000c0: 5826 083f 9f8d f73e 3a5d e13e c1a2 d43e
000000d0: 7efa ca3d 05c2 8f3d e824 113f 8866 c83d
000000e0: c2e2 e63e 280e 403e 58fc 003f aa3b ba3e
000000f0: 5e6e b43e 0523 953e 5b6b 433e 0569 d23e
00000100: 33f3 3a3e e788 b53e 48d7 a63e b93a 8d3e
00000110: 6593 003b bc6a 043f 374d a13e ff65 5a3f
00000120: e7ad 2a3e 3be2 ad3d 2982 ce3e 9461 103f
00000130: a905 5f3e 1e9d 1f3e 3b6f 2e3d bd93 013f
00000140: 9813 c73e fdc6 683f 2168 b83e 5234 f13e
00000150: 48f5 273e f908 d23e 1d5d 313e 24bd b63e
00000160: 3cbd 8b3f 249e 5e3c 4bd9 e33e 4576 c03e
00000170: 057c 023f 7d71 613f 0c45 e53d 4ae6 483f
00000180: 9652 273f a075 2b3b ccb6 b13e 768e 8f3e
00000190: a594 b43e 64b5 8f3e d08b e33e a47d 963e
000001a0: 9232 e13e 2e00 b73e 6782 ca3e 3316 b03e
000001b0: 7189 fc3c fea6 b93e fdbc 923d ed19 f93e
000001c0: 622a 873e f2ff 6f3e b5ae 813c 8186 f83e
000001d0: 5968 433e f491 fe3e ce01 7b3e 587d 523f
000001e0: b4db 893d 21fe b03e 104a a73d 4039 123f
000001f0: 80f4 dc3e 3689 3e3a 7aee 093e f570 e13c

model.2.running_var f4 [128]
0.0010305846 0.21129988 0.00091478415 0.19760393 0.017367434 0.02653491 0.15722416 6e-45
0.1940505 0.30515575 0.11207922 0.14433841 0.20346206 0.16224498 0.017811593 0.044230044
0.04716025 0.14700283 0.026812388 0.15322018 0.24929127 0.2400017 0.0045344667 0.1926096
0.11400656 0.12967391 0.0008910106 0.36454645 0.27530396 0.2608632 0.28896025 0.23757157
0.067923784 0.09700711 0.18146701 0.073064834 0.019242562 0.05030427 0.14409678 4.290988e-05
0.2470132 0.13394296 0.3471673 0.08237848 0.44385955 0.14840937 0.11916053 0.024059782
0.30867997 0.24541913 0.3007877 0.31088772 0.054423783 0.031716168 0.4556805 0.052981876
0.15716282 0.117940046 0.42077306 0.24168928 0.31207788 0.18623066 0.09628674 0.1890782
0.112299025 0.24349494 0.11270662 0.09139303 0.00027947372 0.25759518 0.25987953 0.19993433
0.070035145 0.052217506 0.13089164 0.38373336 0.121009454 0.07329132 0.011214422 0.13941832
0.18531236 0.13295531 0.338794 0.40074712 0.07325491 0.14602521 0.10591245 0.25672403
0.18278414 0.0024576464 0.25291973 0.18874678 0.37524474 0.19933528 0.055958115 0.19744146
0.3915623 0.00042274626 0.21399204 0.21894373 0.29317123 0.20425318 0.24756508 0.15619984
0.20372117 0.3289318 0.22951086 0.24559644 0.009286231 0.1865612 0.033261 0.27776855
0.18937463 0.17030959 0.0043719136 0.30232674 0.0832101 0.21496247 0.1471188 0.07939394
0.020492563 0.20894936 0.04179426 0.28208697 0.29016322 5.9172817e-05 0.065509714 0.011054953
00000000: ae14 873a ff5e 583e 20ce 6f3a af58 4a3e
00000010: 2646 8e3c bd5f d93c 5fff 203e 0400 0000
00000020: 2db5 463e 603d 9c3e ca89 e53d 73cd 133e
00000030: 5c58 503e 8c23 263e 9ee9 913c 902a 353d
00000040: 1b2b 413d e987 163e a7a5 db3c c0e5 1c3e
00000050: 3646 7f3e 01c3 753e dd95 943b 733b 453e
00000060: 457c e93d 3dc9 043e b692 693a d5a5 ba3e
00000070: a4f4 8c3e dd8f 853e 99f2 933e f645 733e
00000080: a01b 8b3d aaab c63d 7dd2 393e 04a3 953d
00000090: 94a2 9d3c da0b 4e3d 1b8e 133e 22fa 3338
000000a0: 07f1 7c3e 5828 093e eabf b13e 0cb6 a83d
000000b0: 8f41 e33e a0f8 173e 700a f43d 0519 c53c
000000c0: 4d0b 9e3e 274f 7b3e d800 9a3e ad2c 9f3e
000000d0: 79eb 5e3d d0e8 013d f44e e93e 8603 593d
000000e0: 4aef 203e 8d8a f13d 916f d73e 657d 773e
000000f0: acc8 9f3e 40b3 3e3e fb31 c53d b79d 413e
00000100: 08fd e53d bd56 793e bad2 e63d 452c bb3d
00000110: 5486 9239 84e3 833e ee0e 853e 96bb 4c3e
00000120: 966e 8f3d 06e2 553d 7508 063e b378 c43e
00000130: ced3 f73d c219 963d b2bc 373c adc3 0e3e
00000140: 86c2 3d3e 7025 083e 6876 ad3e ba2e cd3e
00000150: ac06 963d a287 153e a0e8 d83d 5571 833e
00000160: c42b 3b3e 7710 213b b27e 813e d646 413e
00000170: 1420 c03e 8c1e 4c3e 5634 653d 182e 4a3e
00000180: db7a c83e 0ba4 dd39 bb20 5b3e c932 603e
00000190: 8a1a 963e bf27 513e b381 7d3e daf2 1f3e
000001a0: 489c 503e c069 a83e e504 6b3e a27d 7b3e
000001b0: 4725 183c e609 3f3e b03c 083d ae37 8e3e
000001c0: 6ceb 413e a365 2e3e 4542 8f3b 92ca 9a3e
000001d0: 0f6a aa3d 1f1f 5c3e 50a6 163e 4a99 a23d
000001e0: 05e0 a73c d2f6 553e 7530 2b3d b46d 903e
000001f0: 4690 943e 5430 7838 f529 863d d51f 353c

model.4.weight f4 [64, 128]
-0.041200448 0.12909539 -0.3494284 0.017662313 -0.032187007 -0.0020108924 -0.33142412 -0.39319876
-0.13784419 0.011459135 -0.2502646 -0.041260242 0.0017085403 -0.051081054 -0.11241837 -0.066769436
-0.21965654 -0.16513242 -0.118565165 -0.10216769 -0.053018935 -0.01809659 -0.028690068 0.021785356
-0.018813992 -0.13588318 -0.39614066 -0.09253868 -0.07133985 -0.08018723 -0.4274778 0.03361995
0.014035059 -0.14410198 -0.139197 -0.08859159 -0.27162582 -0.07118211 -0.16252217 -0.094477564
-0.0010889159 -0.054440238 -0.007506759 -0.022505978 -0.20001921 -0.11898011 -0.16782954 -0.17201632
-0.21838287 -0.1480957 -0.07974088 -0.07236076 -0.1736427 -0.09824323 -0.1464576 0.022174409
0.04285898 0.015054876 -0.042163003 -0.036495462 -0.19091713 0.014227624 0.08332629 -0.18676665
-0.3333008 -0.14125493 -0.32353002 -0.032182332 -0.11294152 -0.26308137 -0.24451937 0.04725565
-0.04050791 0.06343841 -0.13773793 -0.26227224 -0.0014385494 0.06958689 -0.0889311 -0.0452592
-0.12833819 0.051049825 -0.037900113 -0.15119414 -0.06547908 -0.24793662 -0.073650636 0.05760194
-0.009197415 -0.20081328 -0.16479059 -0.17538457 -0.0473507 0.085966475 -0.083936326 0.09337446
-0.16940945 -0.41089258 -0.04275748 -0.077548675 -0.09387148 -0.030059034 -0.09979536 -0.1475268
-0.0041259546 -0.19390175 -0.007420022 0.0011737597 -0.35567302 -0.067443274 0.013187827 0.033643175
-0.11202222 -0.060971912 -0.21977575 0.021912249 -0.06259666 -0.24596477 0.08547794 -0.0046262452
-0.05599413 0.021981375 -0.02519185 0.017789397 -0.11908815 -0.48928198 -0.060252078 -0.10492516
-0.05516884 -0.052385923 -0.32153714 0.18193857 0.06555736 0.061772663 -0.15231125 -0.432657
-0.26395246 0.084386565 -0.21842362 0.088380925 0.029633373 -0.015119371 0.035061885 -0.02280108
-0.1970979 -0.0377577 -0.055417154 0.14856873 0.08528248 0.14088768 -0.083845064 0.05020522
0.0014180203 0.02545692 -0.29659998 -0.013154938 -0.18144515 0.023184193 -0.35144165 1.0869075e-05
-0.075731024 -0.16531993 -0.20045078 0.017410172 -0.0445903 -0.0105341645 -0.11470283 -0.16183004
0.08773965 -0.0022640473 0.020855298 -0.03230293 -0.13834868 0.08421655 -0.025028385 -0.14284115
-0.113123685 -0.08262614 0.043306343 -0.012588341 -0.27758268 0.11346053 -0.14724645 -0.102310866
-0.019906987 0.0052758898 0.06977849 -0.14156131 -0.31674528 0.055893216 -0.04493662 -0.0351078
-0.4009654 -0.07362839 -0.31863937 0.13629597 -0.041001797 -0.21169351 -0.31287953 -0.014045563
-0.0021592695 -0.008454783 0.14813814 0.010285764 -0.08388527 0.0053060157 0.035909917 0.07211827
-0.25624973 0.06141049 0.10147347 -0.11201102 -0.35454783 -0.24009985 0.11869182 0.07166439
0.019883368 -0.11297315 -0.15340292 -0.21863335 0.01205219 0.06283547 -0.100900054 0.07317804
-0.12419734 -0.28059193 0.042611174 0.123437054 -0.005044223 0.020901367 -0.09963082 -0.29238865
0.032190513 -0.26674455 -0.041522287 0.1261021 -0.2085806 0.017111814 -0.00485284 -0.0285525
-0.2327979 -0.007186512 -0.21056056 -0.030493585 0.13779522 -0.20555505 0.043742646 -0.012430819
0.059896808 0.012272525 0.024898333 -0.006705247 -0.18580788 -0.48277932 0.025882062 0.13813348
00000000: cdc1 28bd 9531 043e 47e8 b2be 8eb0 903c
00000010: 86d6 03bd 2dc9 03bb 6cb0 a9be 5951 c9be
00000020: 0727 0dbe 19bf 3b3c af22 80be 8000 29bd
00000030: 19f1 df3a 5e3a 51bd 9a3b e6bd 6abe 88bd
00000040: a5ed 60be 7918 29be 4bd2 f2bd 4b3d d1bd
00000050: 622a 59bd 4d3f 94bc 6f07 ebbc 3477 b23c
00000060: cd1f 9abc f624 0bbe f3d2 cabe eb84 bdbd
00000070: a11a 92bd 3439 a4bd 5fde dabe 13b5 093d
00000080: 4ef3 653c 788f 13be a989 0ebe 826f b5bd
00000090: 8a12 8bbe edc7 91bd 366c 26be 747d c1bd
000000a0: f4b9 8eba bafc 5ebd 42fb f5bb 755e b8bc
000000b0: d6d1 4cbe d8ab f3bd 82db 2bbe 0c25 30be
000000c0: c29f 5fbe 66a6 17be 304f a3bd e131 94bd
000000d0: 64cf 31be bf33 c9bd fbf8 15be 1ba7 b53c
000000e0: e68c 2f3d baa8 763c 1db3 2cbd 447c 15bd
000000f0: c87f 43be fb1a 693c f9a6 aa3d c23f 3fbe
00000100: 67a6 aabe 22a5 10be baa5 a5be 9fd1 03bd
00000110: e24d e7bd 9ab2 86be 4963 7abe 248f 413d
00000120: 9feb 25bd ffeb 813d 2c0b 0dbe 8c48 86be
00000130: b58d bcba 9283 8e3d 8221 b6bd b661 39bd
00000140: 166b 03be 9f19 513d 263d 1bbd a3d2 1abe
00000150: e519 86bd 19e3 7dbe 25d6 96bd 03f0 6b3d
00000160: c1b0 16bc ffa1 4dbe ddbe 28be 0398 33be
00000170: cff2 41bd 310f b03d cfe6 abbd 1c3b bf3d
00000180: ac79 2dbe 8360 d2be 7822 2fbd d7d1 9ebd
00000190: b13f c0bd 5d3e f6bc 8261 ccbd 4411 17be
000001a0: 0433 87bb 2e8e 46be a823 f3bb d7d8 993a
000001b0: c61a b6be b31f 8abd c111 583c 6dcd 093d
000001c0: e86b e5bd afbd 79bd e50c 61be 5181 b33c
000001d0: ad32 80bd 30de 7bbe 0f0f af3d c297 97bb
000001e0: 1a5a 65bd 4912 b43c 235f cebc 12bb 913c
000001f0: 7de4 f3bd 2b83 fabe e2ca 76bd 01e3 d6bd
00000200: b9f8 61bd 9f92 56bd 84a0 a4be 1b4e 3a3e
00000210: f042 863d 5505 7d3d 7bf7 1bbe 3885 ddbe
00000220: c724 87be ddd2 ac3d 71aa 5fbe 0f01 b53d
00000230: b0c1 f23c 3db7 77bc 0d9d 0f3d 55c9 babc
00000240: 08d4 49be d1a7 1abd 19fd 62bd 6722 183e
00000250: 95a8 ae3d dc44 103e f6b6 abbd fda3 4d3d
00000260: dedc b93a 088b d03c f4db 97be cf87 57bc
00000270: c2cc 39be c7ec bd3c 29f0 b3be 525a 3637
00000280: de18 9bbd a149 29be f842 4dbe c79f 8e3c
00000290: 52a4 36bd 7d97 2cbc 51e9 eabd c6b6 25be
000002a0: d8b0 b33d 6960 14bb bbd8 aa3c 1450 04bd
000002b0: 47ab 0dbe ba79 ac3d 5408 cdbc f344 12be
000002c0: 64ad e7bd e537 a9bd fe61 313d 543f 4ebc
000002d0: 511f 8ebe ff5d e83d c6c7 16be 5c88 d1bd
000002e0: fa13 a3bc 5fe1 ac3b 06e8 8e3d 73f5 10be
000002f0: 702c a2be 49f0 643d 760f 38bd 32cd 0fbd
00000300: 564b cdbe 7bca 96bd b324 a3be 2c91 0b3e
00000310: 80f1 27bd 2fc6 58be bf31 a0be 5c1f 66bc
00000320: 8882 0dbb ee85 0abc 86b1 173e 9f85 283c
00000330: 0acc abbd 16de ad3b 4716 133d beb2 933d
00000340: 2a33 83be 9189 7b3d 53d1 cf3d 0966 e5bd
00000350: 4b87 b5be bcdc 75be b214 f33d c8c4 923d
00000360: 72e2 a23c 785e e7bd a815 1dbe 6ce1 5fbe
00000370: 8c76 453c e2af 803d b0a4 cebd 5ede 953d
00000380: 2d5b febd bfa9 8fbe 0e89 2e3d 91cc fc3d
00000390: 024a a5bb 5839 ab3c 3e0b ccbd f7b3 95be
000003a0: 33da 033d be92 88be 4613 2abd e920 013e
000003b0: 2796 55be 132e 8c3c 9304 9fbb efe6 e9bc
000003c0: 9362 6ebe d57c ebbb 309d 57be afcd f9bc
000003d0: 311a 0d3e 067d 52be 7d2b 333d a2aa 4bbc
000003e0: 5b56 753d b312 493c 97f7 cb3c b0b7 dbbb
000003f0: 6c44 3ebe da2e f7be 9e06 d43c dd72 0d3e

model.4.bias f4 [64]
-0.3208874 -0.37079042 1.4676743 -0.098848306 0.11942663 -0.19454804 0.73505473 -0.3786293
-0.18244423 -0.48154736 0.89682895 0.16134511 0.069406405 0.29567257 -0.16334943 1.331058
0.07703688 -0.04583625 -0.27115035 0.6157736 0.013729028 0.30227244 -0.50768745 0.22950356
-0.21740869 0.22236879 1.7914633 0.35350192 -0.4914896 0.84492356 0.028088585 0.22490811
0.3016287 -0.011416595 -0.3295767 -0.037087645 -0.13807006 -0.5703787 1.8678646 0.038086914
0.36556453 0.8115823 0.1779937 -0.5130952 -0.10309117 -0.3228346 -0.052241877 -0.014134338
0.4217083 1.3209596 -0.06862681 0.22754188 0.48439243 -0.0003946945 -0.084807836 0.26089403
1.7759411 0.80729777 -0.47639436 0.78639513 -0.101471364 -0.13530752 0.029235952 0.9143783
00000000: 5a4b a4be 3ed8 bdbe c0dc bb3f fb70 cabd
00000010: f395 f43d 9a37 47be 8c2c 3c3f b3db c1be
00000020: a9d2 3abe 608d f6be 9596 653f a737 253e
00000030: f224 8e3d 6562 973e 1345 27be 1c60 aa3f
00000040: 83c5 9d3d cbbe 3bbd 38d4 8abe 57a3 1d3f
00000050: b8ef 603c 74c3 9a3e cef7 01bf fb02 6b3e
00000060: 62a0 5ebe a5b4 633e ab4e e53f 34fe b43e
00000070: 86a4 fbbe e94c 583f 081a e63c 504e 663e
00000080: 146f 9a3e ac0c 3bbc 47be a8be 37e9 17bd
00000090: 3d62 0dbe 5704 12bf 3016 ef3f 0601 1c3d
000000a0: 462b bb3e dcc3 4f3f fb43 363e 355a 03bf
000000b0: 7721 d3bd 944a a5be 94fb 55bd b693 67bc
000000c0: 26ea d73e 3415 a93f 378c 8cbd bd00 693e
000000d0: 4902 f83e 00ef ceb9 bbaf adbd e793 853e
000000e0: 0a52 e33f 11ab 4e3f f6e9 f3be 3151 493f
000000f0: 38d0 cfbd 0e8e 0abe 3c80 ef3c b214 6a3f

model.6.weight f4 [64]
0.6444261 0.8071247 0.7844605 0.6228027 0.6551623 0.6559097 0.5994452 0.6502699
0.6402625 0.54025954 0.6274842 0.70737773 0.51965106 0.6748943 0.61762816 0.5517504
0.69166493 0.69959676 0.6057817 0.6579947 0.58908886 0.62537014 0.8141027 0.41804355
0.642402 0.4270602 0.50013155 0.55366254 0.654433 0.48936713 0.5004962 0.7040279
0.5594931 0.71964645 0.64982575 0.6121334 0.69876117 0.993343 0.52335966 0.41969517
0.7116968 0.6026274 0.6609622 0.83081526 0.59477496 0.6367387 0.7516585 0.5154358
0.6755032 0.5234357 0.3637737 0.57994133 0.52986705 0.4355122 0.9077841 0.6135245
0.51189476 0.54669034 0.79128975 0.5665104 0.5169361 0.4344338 0.6320469 0.6695839
00000000: 1cf9 243f b99f 4e3f 67d2 483f ff6f 1f3f
00000010: b7b8 273f b3e9 273f 3e75 193f 1778 263f
00000020: 3ee8 233f 734e 0a3f cea2 203f b516 353f
00000030: da07 053f dfc5 2c3f e11c 1e3f 843f 0d3f
00000040: f410 313f c618 333f 8214 1b3f 5772 283f
00000050: 87ce 163f 4218 203f 0969 503f ce09 d63e
00000060: 7574 243f a2a7 da3e 9f08 003f d4bc 0d3f
00000070: ec88 273f 548e fa3e 8520 003f 2c3b 343f
00000080: f13a 0f3f c03a 383f fb5a 263f c6b4 1c3f
00000090: 03e2 323f ba4b 7e3f e6fa 053f 49e2 d63e
000000a0: c331 363f ca45 1a3f d234 293f 4fb0 543f
000000b0: 2c43 183f 4f01 233f b16c 403f 9af3 033f
000000c0: c7ed 2c3f e2ff 053f 8c40 ba3e 0977 143f
000000d0: 5ea5 073f 75fb de3e 8a64 683f f10f 1d3f
000000e0: 890b 033f e6f3 0b3f f791 4a3f d306 113f
000000f0: ed55 043f 1b6e de3e d3cd 213f da69 2b3f

model.6.bias f4 [64]
0.2963391 0.14883389 -0.091493025 -0.04023611 0.3084378 0.28128317 -0.032954976 0.25599396
0.24501832 0.17563339 -0.022068724 0.23488759 0.28557557 0.22560012 0.2616434 -0.15558402
-0.06442449 -0.09662599 -0.14932014 -0.13125364 0.067824095 0.47097027 0.11215341 -0.12329768
-0.21615385 -0.15454802 -0.051857818 -0.21523145 -0.024127193 -0.08071401 0.10162289 0.37438205
-0.053171225 0.25274795 0.0780597 -0.15642224 -0.029509345 -0.019229587 -0.07874757 0.20677468
0.14223185 0.052143715 -0.04547106 -0.021160157 -0.04190405 0.19110717 0.2053122 0.44846103
0.031947486 -0.09266337 -0.02497557 0.20165697 -0.06262882 0.33619645 0.57276636 0.5597296
-0.1203215 -0.07969557 0.067882374 -0.079603955 0.0122864265 0.05068662 0.14471993 0.22040932
00000000: c2b9 973e e967 183e b260 bbbd 9fce 24bd
00000010: 8feb 9d3e 5904 903e ccfb 06bd a411 833e
00000020: 15e6 7a3e 3dd9 333e 78c9 b4bc 5f86 703e
00000030: f636 923e b803 673e 20f6 853e 6b51 1fbe
00000040: fdf0 83bd d9e3 c5bd 61e7 18be 5b67 06be
00000050: 5ce7 8a3d 0423 f13e b0b0 e53d 7e83 fcbd
00000060: 6f57 5dbe d641 1ebe dd68 54bd a265 5cbe
00000070: 64a6 c5bc 634d a5bd a91f d03d 01af bf3e
00000080: 12ca 59bd 2e68 813e c4dd 9f3d 272d 20be
00000090: 95bd f1bc 5e87 9dbc 6846 a1bd bebc 533e
000000a0: 3aa5 113e a694 553d dd3f 3abd 1158 adbc
000000b0: 95a3 2bbd 99b1 433e 5d3d 523e af9c e53e
000000c0: 5edb 023d 4bc6 bdbd 9199 ccbc 2a7f 4e3e
000000d0: 8a43 80bd f121 ac3e d1a0 123f 704a 0f3f
000000e0: 1e6b f6bd 6e37 a3bd ea05 8b3d 6607 a3bd
000000f0: 024d 493c c69c 4f3d 7631 143e fbb2 613e

model.6.running_mean f4 [64]
0.490368 0.0506415 3.7569687 0.3074154 0.24883108 0.52463275 2.5871346 0.1997016
0.06683435 0.09327713 2.8675404 1.6741532 0.47365284 0.60648227 0.3369517 4.482243
0.9068261 0.3823979 0.5251509 2.3594093 0.9114759 0.8975002 0.021429533 0.48515177
0.6933326 1.1182575 3.0159957 2.576408 6e-45 2.4527647 1.2367672 0.37418348
1.2726357 0.54912144 0.034432206 0.8740368 0.13907877 4.1233648e-19 3.7909174 0.7545041
0.6958548 2.560522 1.5262933 2.4576007e-06 0.96012723 0.16631888 0.4151189 0.7175407
2.4392967 2.8717284 0.43277818 0.854338 1.115191 0.8394921 0.2701144 0.93415064
3.3823705 1.9820396 0.027394846 2.8232377 0.8695027 0.46216172 1.2316806 1.0340294
00000000: 8411 fb3e 766d 4f3d 2d72 7040 8d65 9d3e
00000010: 93cd 7e3e 554e 063f 9d93 2540 947e 4c3e
00000020: 73e0 883d 1408 bf3d c885 3740 a74a d63f
00000030: a082 f23e 6c42 1b3f ef84 ac3e 896e 8f40
00000040: c125 683f a8c9 c33e 4a70 063f 9000 1740
00000050: 7c56 693f 93c2 653f fd8c af3c d065 f83e
00000060: 3f7e 313f 1023 8f3f 1306 4140 dee3 2440
00000070: 0400 0000 19fa 1c40 634e 9e3f fa94 bf3e
00000080: bae5 a23f 3993 0c3f c908 0d3d e0c0 5f3f
00000090: aa6a 0e3e 8766 f320 649e 7240 2e27 413f
000000a0: 8a23 323f 98df 2340 945d c33f 42ed 2436
000000b0: e6ca 753f 7f4f 2a3e 778a d43e bfb0 373f
000000c0: 701d 1c40 66ca 3740 1a95 dd3e e5b5 5a3f
000000d0: 94be 8e3f f4e8 563f 6f4c 8a3e 7f24 6f3f
000000e0: c278 5840 79b3 fd3f 286b e03c edaf 3440
000000f0: bb97 5e3f 76a0 ec3e b6a7 9d3f 135b 843f

model.6.running_var f4 [64]
0.6654193 0.03103575 11.85426 2.457307 0.1375163 1.0212364 2.752025 0.18564102
0.042016298 0.099942885 4.8045025 1.9243828 0.45620322 0.5001201 0.3504431 8.318925
1.3512414 0.39996997 2.2958305 9.191704 1.2093642 0.460536 0.00980345 0.7129727
2.4320707 5.7667794 7.0125833 5.141106 6e-45 12.250816 1.1225029 0.30844852
4.8062906 0.4466934 0.027641336 2.3832216 0.10722974 5.5505564e-20 14.58124 0.7731338
0.49949664 2.7302296 9.953968 3.3775189e-07 7.080001 0.20161365 0.27204555 0.49968928
7.951427 12.849659 0.7361965 0.7554088 3.6834548 0.8558097 0.17840134 0.59996283
10.068888 6.9302454 0.014120024 5.1837354 4.4568467 0.60364157 1.429985 0.47716457
00000000: eb58 2a3f af3e fe3c 0dab 3d41 8544 1d40
00000010: 13d1 0c3e e0b7 823f 2d21 3040 ae18 3e3e
00000020: 4819 2c3d dbae cc3d 7cbe 9940 2d52 f63f
00000030: 7893 e93e df07 003f 476d b33e 511a 0541
00000040: 7af5 ac3f ddc8 cc3e e3ee 1240 3811 1341
00000050: 72cc 9a3f 60cb eb3e a69e 203c 6185 363f
00000060: 0ca7 1b40 7589 b840 1567 e040 f183 a440
00000070: 0400 0000 5803 4441 2dae 8f3f f7ec 9d3e
00000080: 22cd 9940 ffb4 e43e 1570 e23c b486 1840
00000090: 449b db3d 0e0f 831f c24c 6941 19ec 453f
000000a0: 06be ff3e 15bc 2e40 7443 1f41 4454 b534
000000b0: 5e8f e240 cf73 4e3e 8e49 8b3e 46d7 ff3e
000000c0: 1772 fe40 3498 4d41 6077 3c3f 7962 413f
000000d0: b9bd 6b40 5816 5b3f d7ae 363e 2a97 193f
000000e0: 2a1a 2141 92c4 dd40 ac57 673c 29e1 a540
000000f0: 7d9e 8e40 4188 1a3f c009 b73f ea4e f43e

model.8.weight f4 [32, 64]
-0.04100476 0.097955406 0.018141638 0.04100304 -0.027973838 -0.0065204795 0.09880606 -0.03568224
0.17018089 0.027931072 0.0043994337 -0.050450865 0.15105562 0.10511611 -0.107678644 -0.12116099
-0.08969831 0.04896907 -0.028873011 0.18069324 -0.034242067 -0.062083486 0.0035842082 0.09776953
0.0067851804 -0.04452034 -0.06752154 0.10320907 0.039234784 0.03129208 -0.08392667 0.06403489
-0.11819308 -0.09694062 -0.063798 -0.014945439 -0.06393739 0.017426819 0.024847051 -0.10392613
-0.10421052 0.027313273 -0.05113475 -0.07303714 -0.12058918 -0.03094741 -0.08513431 -0.0509172
0.082861334 0.0034916091 -0.03501489 0.07480572 -0.07619882 0.00034899465 0.18727912 -0.030653276
-0.042155333 -0.0626797 0.036127623 -0.014174379 -0.039940603 -0.03268986 -0.039097246 -0.09073406
-0.11926142 0.022471605 0.17097373 -0.0852267 0.052420262 -0.19625913 0.14523956 -0.24519593
0.025101451 -0.13552052 -0.011453061 -0.069091946 -0.2122562 -0.16265833 -0.20497948 0.13487716
0.0411884 0.003251418 -0.10137166 0.21859632 -0.052151576 0.11795226 -0.2095555 -0.021461127
-0.04716283 0.02411452 0.15762657 0.060813487 -0.009278968 0.0483244 0.04898177 -0.124947116
0.06412996 0.13771862 -0.03096117 -0.038858507 -0.025993254 -0.13238996 0.15710348 -0.23420988
-0.057777956 0.025068417 -0.024456577 0.10223034 -0.018432982 -0.09265532 0.019483404 -0.060647007
0.24232848 0.06637364 -0.03360008 -0.26369554 0.024041759 -0.29123473 0.023183659 -0.0542748
0.12990047 0.013396458 0.050032012 0.12309639 0.04636739 0.006610225 -0.1444082 0.13379954
-0.016203303 -0.03412012 0.08763316 -0.21891999 0.30621076 -0.05737669 0.05570941 -0.04583928
0.20308271 -0.06060989 0.20502573 -0.29577377 0.08090118 0.19816653 0.06089919 0.0861672
-0.12447983 -0.112726524 -0.19234012 0.12761888 -0.1788569 0.18068962 -0.07192852 -0.16274676
-0.32990214 -0.061757244 0.0638896 0.08742615 -0.13795711 0.015178559 -0.07437474 0.17322688
0.028767493 0.21499169 -0.07184846 -0.2603617 0.042245757 -0.02979296 0.017840836 -0.006255779
0.26362827 0.10691992 0.016388077 -0.06908167 0.0012417668 -0.046741962 0.18464835 0.00889675
0.15065446 0.0114647485 -0.022640442 0.027212631 -0.024188455 -0.04578077 0.37156427 0.07854378
0.046173144 -0.17676562 -0.057064634 0.19742441 0.028164921 -0.07076587 -0.22569726 0.32549217
0.023854593 -0.013434582 -0.30174586 0.04099204 0.16687408 -0.05764825 -0.14460944 0.015242111
0.07821068 -0.042332932 -0.054032918 -0.06833232 0.077983454 0.21198297 -0.06941637 -0.09404145
-0.13583234 0.038218796 -0.027081227 0.12678316 -0.06482985 0.121528044 0.00394903 -0.07056552
-0.062190745 -0.120939955 0.021245826 0.09948071 -0.0563504 -0.023151277 0.054037005 0.0032755842
-0.12375469 -0.045435857 -0.039359033 -0.11916146 0.12422335 0.061518975 -0.027428076 -0.031676665
0.027251884 0.1652053 -0.08251502 0.14895198 0.06576402 0.026943779 0.08432975 -0.07457336
-0.09436926 0.07551529 -0.11168628 0.08140329 0.021492165 0.072650015 -0.042412803 -0.0061353315
-0.0022186087 -0.11672283 0.05734556 0.16119745 0.17174987 0.07693779 -0.0539572 0.039837513
00000000: 9bf4 27bd d89c c83d c69d 943c cef2 273d
00000010: 6429 e5bc bfa9 d5bb d55a ca3d 8a27 12bd
00000020: e643 2e3e b4cf e43c 2029 903b 91a5 4ebd
00000030: 53ae 1a3e 1d47 d73d 9f86 dcbd 4123 f8bd
00000040: bfb3 b7bd cb93 483d 1887 ecbc a607 393e
00000050: 6941 0cbd 414b 7ebd 09e5 6a3b 643b c83d
00000060: 3856 de3b f65a 36bd bc48 8abd 475f d33d
00000070: a7b4 203d 202c 003d bfe1 abbd b924 833d
00000080: 370f f2bd ce88 c6bd 87a8 82bd b7dd 74bc
00000090: 9bf1 82bd b0c2 8e3c 0b8c cb3c 39d7 d4bd
000000a0: 536c d5bd 16c0 df3c ac72 51bd 7f94 95bd
000000b0: 76f7 f6bd 6c85 fdbc e65a aebd 8e8e 50bd
000000c0: 34b3 a93d 7bd3 643b c66b 0fbd be33 993d
000000d0: 200e 9cbd 45f9 b639 19c6 3f3e 941c fbbc
000000e0: 12ab 2cbd 375e 80bd 8ffa 133d a83b 68bc
000000f0: c298 23bd cde5 05bd 6f24 20bd c7d2 b9bd
00000100: 553f f4bd 5f16 b83c bd13 2f3e 568b aebd
00000110: a1b6 563d 27f8 48be aeb9 143e a414 7bbe
00000120: 8fa1 cd3c e4c5 0abe 9fa5 3bbc 1480 8dbd
00000130: b059 59be e88f 26be 24e6 51be 3d1d 0a3e
00000140: 2bb5 283d be15 553b f29b cfbd b7d7 5f3e
00000150: e49c 55bd f490 f13d b895 56be 3fcf afbc
00000160: d02d 41bd d08b c53c dc68 213e 9017 793d
00000170: d006 18bc ceef 453d 1ca1 483d 46e4 ffbd
00000180: 9256 833d 1c06 0d3e 48a2 fdbc 192a 1fbd
00000190: ceef d4bc 3c91 07be bcdf 203e b7d4 6fbe
000001a0: 94a8 6cbd 485c cd3c 2959 c8bc 245e d13d
000001b0: c400 97bc 13c2 bdbd a99b 9f3c ff68 78bd
000001c0: f524 783e e7ee 873d 3da0 09bd 1a03 87be
000001d0: 39f3 c43c b81c 95be a8eb bd3c 414f 5ebd
000001e0: a104 053e d17c 5b3c 5eee 4c3d f619 fc3d
000001f0: bbeb 3d3d 969a d83b bedf 13be bf02 093e
00000200: cabc 84bc 8ac1 0bbd 0479 b33d 902c 60be
00000210: a8c7 9c3e d203 6bbd 8d2f 643d f8c1 3bbd
00000220: eaf4 4f3e 1342 78bd 44f2 513e a96f 97be
00000230: 85af a53d 2bec 4a3e 6e71 793d 6e78 b03d
00000240: 48ef febd 2add e6bd cff4 44be 86ae 023e
00000250: 4326 37be b306 393e 434f 93bd 16a7 26be
00000260: efe8 a8be 2af5 7cbd 8dd8 823d 7b0c b33d
00000270: a144 0dbe 7eaf 783c c951 98bd 6362 313e
00000280: cea9 eb3c c826 5c3e 4925 93bd 214e 85be
00000290: e309 2d3d 5e10 f4bc f226 923c 47fd ccbb
000002a0: 49fa 863e d5f8 da3d 4a40 863c b17a 8dbd
000002b0: c8c2 a23a 8074 3fbd 7514 3d3e adc3 113c
000002c0: 2a45 1a3e a4d6 3b3c 7378 b9bc 06ed de3c
000002d0: de26 c6bc 9e84 3bbd ac3d be3e 90db a03d
000002e0: 0d20 3d3d 0c02 35be 9bbc 69bd a029 4a3e
000002f0: 1fba e63c b2ed 90bd 2f1d 67be e9a6 a63e
00000300: b56a c33c b91c 5cbc 6f7e 9abe 45e7 273d
00000310: 0ae1 2a3e 9220 6cbd 7f14 14be 0cba 793c
00000320: ec2c a03d 4c65 2dbd 9f51 5dbd d1f1 8bbd
00000330: cab5 9f3d 1012 593e 2b2a 8ebd ce98 c0bd
00000340: a217 0bbe 508b 1c3d 73d9 ddbc 72d3 013e
00000350: 83c5 84bd b2e3 f83d dd66 813b a884 90bd
00000360: b9bb 7ebd 5eaf f7bd ba0b ae3c 8bbc cb3d
00000370: adcf 66bd bfa7 bdbc e855 5d3d 2fab 563b
00000380: 1973 fdbd f31a 3abd f036 21bd ec0a f4bd
00000390: d068 fe3d 52fb 7b3d d8b0 e0bc 64bf 01bd
000003a0: 583f df3c 942b 293e a3fd a8bd de86 183e
000003b0: 49af 863d 33b9 dc3c 13b5 ac3d ebb9 98bd
000003c0: ac44 c1bd c3a7 9a3d c7bb e4bd c5b6 a63d
000003d0: 5610 b03c 88c9 943d 0cb9 2dbd e40a c9bb
000003e0: 1466 11bb 610c efbd 2ee3 6a3d f210 253e
000003f0: 33df 2f3e 8f91 9d3d 3a02 5dbd a92c 233d

model.8.bias f4 [32]
1.063646 0.9093141 -0.67497635 0.7453274 0.8781919 -0.78959394 0.44104677 0.8783193
0.74853575 1.0973103 0.8493256 0.7091519 -0.7504731 -0.6043495 1.088666 1.0873262
0.7483664 0.88581836 0.7407144 -0.48694158 0.8423929 1.0529631 0.8483969 0.9561194
1.0868956 0.8568121 0.96800673 -0.68827736 0.62144893 -0.78995085 0.6191133 0.94034266
00000000: 8d25 883f cfc8 683f 40cb 2cbf c7cd 3e3f
00000010: 2fd1 603f d422 4abf e2d0 e13e 89d9 603f
00000020: 0aa0 3f3f aa74 8c3f 676d 593f fb8a 353f
00000030: 011f 40bf a6b6 1abf 6859 8b3f 812d 8b3f
00000040: f194 3f3f fec4 623f 759f 3d3f 6850 f9be
00000050: 10a7 573f 7fc7 863f 8a30 593f 3ec4 743f
00000060: 651f 8b3f 0a58 5b3f 4acf 773f f232 30bf
00000070: 4717 1f3f 383a 4abf 367e 1e3f 4cba 703f

model.10.weight f4 [1, 32]
0.35147887 0.31620273 -0.38499734 0.2044625 0.30118227 -0.35917518 0.14445432 0.2081305
0.11437389 0.27304003 0.28031304 0.21896116 -0.29729643 -0.24364598 0.2649253 0.32847327
0.16719085 0.12864438 0.24577843 -0.26279116 0.29643053 0.259399 0.33500698 0.292628
0.22328539 0.34115767 0.168567 -0.21155973 0.17972882 -0.33380866 0.11670955 0.21482426
00000000: 0af5 b33e 53e5 a13e 5f1e c5be 9e5e 513e
00000010: 9034 9a3e cfe5 b7be d5eb 133e 2920 553e
00000020: dc3c ea3d e7cb 8b3e 3185 8f3e 5b37 603e
00000030: 3d37 98be 557e 79be 4aa4 873e a62d a83e
00000040: 1434 2b3e 5abb 033e 57ad 7b3e 908c 86be
00000050: bec5 973e f2cf 843e 0986 ab3e 56d3 953e
00000060: eda4 643e 38ac ae3e d49c 2c3e 1da3 58be
00000070: d50a 383e f8e8 aabe 6b05 ef3d e4fa 5b3e
